model_weights.pth (torch, 157671 bytes, 15 tensors)

encoder.0.weight f4 [32, 1, 3, 3]
0	0x3e4392cc	0.19098967
1	0xbd919c02	-0.07109834
2	0xbe1d6885	-0.15371902
3	0x3e0500be	0.12988564
4	0xbef8e5c1	-0.48612788
5	0x3dba0805	0.09083561
6	0x3d7413a0	0.05958903
7	0x3e883ea4	0.2661029
8	0xbc0dc2a1	-0.00865236
9	0x3da58e22	0.0808375
10	0x3dd8fbe8	0.10594922
11	0xbd2b9cc4	-0.04189755
12	0x3e97dd60	0.29661083
13	0xbe255e4b	-0.16149251
14	0xbdb29f20	-0.08721757
15	0x3e5ebd42	0.21751884
16	0xbb3c945a	-0.0028774948
17	0xbe1767f5	-0.1478575
18	0x3c16bd84	0.0092004575
19	0xbe9f93c1	-0.31167415
20	0x3e7018f9	0.23447026
21	0x3e79c491	0.2439139
22	0x3e868f71	0.26281312
23	0x3e5c714c	0.21527594
24	0xbdef95d8	-0.11698502
25	0xbe172632	-0.14760664
26	0xbeba203c	-0.36352718
27	0xbd104a22	-0.03522695
28	0xbdd05dc1	-0.10174132
29	0xbe8f4ebf	-0.27989766
30	0xbcc4aca5	-0.024008105
31	0xbeb8a0c5	-0.36060157
32	0x3e4cd1fa	0.20001975
33	0x3d456ec0	0.048201323
34	0x3eaf78b6	0.34271783
35	0x3e6d42c8	0.23170006
36	0x3edeb125	0.43494526
37	0x3cc99fe1	0.024612369
38	0xbd979a03	-0.07402422
39	0xbea7600d	-0.32690468
40	0x3db889cd	0.090106584
41	0xbdf4472a	-0.11927636
42	0xbec54836	-0.38531655
43	0xbe1f80bb	-0.1557645
44	0xbe974ff3	-0.29553184
45	0xbe8983fb	-0.26858506
46	0xbe6414d6	-0.22273573
47	0x3e3cad40	0.18425465
48	0x3de7fa08	0.113269866
49	0x3d601bc7	0.05471399
50	0x3e38cc77	0.18046747
51	0x3e812fa2	0.25231653
52	0xbeb347d0	-0.35015726
53	0x3e1ba543	0.15199761
54	0xbe587b07	-0.21140681
55	0x3b34f468	0.0027611498
56	0x3e400da3	0.18755202
57	0xbe8df284	-0.27724087
58	0x3ea42402	0.32058722
59	0x3e8ff70f	0.28118178
60	0x3da08fe2	0.078399435
61	0x3d058f39	0.03260729
62	0xbea067e1	-0.31329253
63	0xbe1c22eb	-0.15247695
64	0xbe9d55d4	-0.30729544
65	0xbdd7d23b	-0.10538145
66	0xbd4e67b6	-0.050391875
67	0xbe9334f8	-0.2875135
68	0x3e8aadff	0.27085873
69	0x3e9c6713	0.3054739
70	0xbe5df443	-0.2167521
71	0xbdaba660	-0.08381343
72	0xbd941238	-0.072300375
73	0x3d239dc3	0.039945375
74	0xbde66abf	-0.11250829
75	0xbe48ce0f	-0.19609855
76	0x3e661c37	0.224717
77	0xbe6a919e	-0.22907111
78	0x3e664dbb	0.2249059
79	0x3e35a0ba	0.17737094
80	0xbdbd1e35	-0.09234277
81	0x3d906ecb	0.07052382
82	0xbe74c61b	-0.23903696
83	0x3ea3ea89	0.32014874
84	0xbc8b1639	-0.01697837
85	0xbe8537b6	-0.26019067
86	0x3ea68873	0.32525977
87	0xbeaf6ab8	-0.34261107
88	0xbdb0dbdf	-0.08635687
89	0xbe2bcbac	-0.16776913
90	0x3d4bd81b	0.04976664
91	0xbe3a55c6	-0.18196782
92	0x3d21b130	0.03947562
93	0x3e3b36be	0.18282601
94	0x3e04ea85	0.12980087
95	0xbe3cba4e	-0.18430445
96	0x3d496e4d	0.049177457
97	0xbecb39bb	-0.39692482
98	0xbeef683a	-0.46759206
99	0xbe4af9a8	-0.19821799
100	0x3e99ec7c	0.30063236
101	0xbea1ffe0	-0.3164053
102	0x3e33a4c6	0.17543325
103	0xbe8c8e9d	-0.27452555
104	0xbe474e4e	-0.19463465
105	0x3e527278	0.20551479
106	0x3e676298	0.22596204
107	0xbeb39c48	-0.3508017
108	0x3d00b46d	0.031422067
109	0x3d9631df	0.07333731
110	0xbe28dca1	-0.16490413
111	0xbd57d6ab	-0.052694958
112	0x3d8f2f7f	0.06991481
113	0xbe12dab4	-0.14341241
114	0xbd280b4d	-0.041026402
115	0xbcddb05c	-0.027061634
116	0xbd060ae3	-0.032725226
117	0xbc94795f	-0.01812428
118	0x3ea15435	0.31509557
119	0x3b1312cc	0.0022441624
120	0xbea24364	-0.3169204
121	0xbe90b7b3	-0.2826515
122	0x3df88137	0.12134021
123	0x3e8a65b7	0.27030727
124	0xbd02ba90	-0.0319162
125	0x3d6abb28	0.057307392
126	0xbdc6ca51	-0.097065575
127	0x3dcf415e	0.1011989
128	0xbeac1ba7	-0.33614847
129	0x3e417805	0.1889344
130	0xbdd70020	-0.10498071
131	0x3ed6b384	0.41933835
132	0x3d653fdb	0.0559691
133	0xbe86c063	-0.26318654
134	0x3dc56eca	0.09640272
135	0xbd30231f	-0.043002244
136	0x3e7eeea2	0.24895719
137	0xbe296f16	-0.16546282
138	0x3e27f3b2	0.16401556
139	0x3d05941a	0.032611944
140	0xbdd49ec9	-0.10381848
141	0xbea515cc	-0.32243192
142	0xbee8ddf0	-0.45481825
143	0xbe0af968	-0.13571703
144	0x3e4d60eb	0.20056503
145	0xbe22edc5	-0.15911014
146	0x3e22695b	0.15860502
147	0xbe986778	-0.2976644
148	0xbeb01b78	-0.34395957
149	0xbe03eeee	-0.12884113
150	0x3e462581	0.19350244
151	0xbeafb4e1	-0.34317687
152	0x3d421260	0.047380805
153	0x3e42991d	0.1900372
154	0xbdafe05c	-0.08587715
155	0x3e5b2bd4	0.21403438
156	0xbe899f08	-0.26879144
157	0x3eb2d2ae	0.3492636
158	0x3d201025	0.039077897
159	0xbe590da4	-0.2119661
160	0x3e81ddb0	0.25364447
161	0xbe3d0504	-0.18458945
162	0xbe8892c6	-0.2667448
163	0x3e898d1c	0.2686547
164	0x3dbc6586	0.091990516
165	0xbc8ce000	-0.017196655
166	0xbea5587e	-0.32294077
167	0xbe83f63c	-0.257738
168	0xbd5895ab	-0.05287711
169	0xbe92a99b	-0.28645024
170	0xbd27358b	-0.040822547
171	0x3e803abf	0.2504482
172	0xbd8d0cc9	-0.06887204
173	0xbe661f5d	-0.22472902
174	0xbe6504f4	-0.2236517
175	0xbe78cfc4	-0.24298006
176	0xbdf4dfdb	-0.119567595
177	0xbe348aae	-0.17631027
178	0x3ead6781	0.3386803
179	0x3e647ee0	0.22314024
180	0x3db56775	0.088576235
181	0xbc19ca92	-0.009386675
182	0x3e325115	0.17413743
183	0x3e46a4d4	0.19398814
184	0xbc79ac1a	-0.015238786
185	0x3e949d2a	0.29026157
186	0xbdbee3c6	-0.09320788
187	0xbec3fc2f	-0.38278338
188	0xbdb5d3f3	-0.08878317
189	0xbe694509	-0.22780241
190	0xbe806f49	-0.25084904
191	0xbe77ca82	-0.24198344
192	0x3e0875b8	0.13326156
193	0xbdef2e71	-0.1167878
194	0xbca0bdac	-0.019621693
195	0x3ea3fc48	0.32028413
196	0xbe296ef2	-0.16546229
197	0xbe0246a9	-0.12722267
198	0xbe483291	-0.1955054
199	0xbe5f6c66	-0.21818694
200	0xbe84760f	-0.25871322
201	0x3d26eff5	0.040756185
202	0x3e7c8c2d	0.24662848
203	0xbd39974d	-0.045310307
204	0x3e30bc10	0.1725924
205	0xbd8f14cb	-0.06986388
206	0x3d39abc8	0.04532984
207	0x3e1143d5	0.14186032
208	0xbea4ffb1	-0.32226327
209	0x3d88dd0f	0.066827886
210	0x3e1be251	0.15223052
211	0x3d4453ca	0.04793147
212	0xbdc9a87d	-0.0984659
213	0xbe005ec8	-0.12536156
214	0xbe190f14	-0.14947158
215	0x3ea0b1d2	0.31385666
216	0xbe0253a7	-0.12727223
217	0x3e8a14f4	0.2696911
218	0xbd9b55f0	-0.07584751
219	0xbe99e12a	-0.300546
220	0xbd3aa181	-0.04556418
221	0x3e98f09a	0.29871064
222	0x3eec8fa9	0.46203354
223	0xbeb0ff83	-0.3456994
224	0xbe1bc02d	-0.15210028
225	0xbea2ffcd	-0.31835786
226	0xbde88e04	-0.11355212
227	0xbd87c4a0	-0.066293
228	0x3e1e3dbc	0.15453237
229	0x3e7a27be	0.24429223
230	0xbbb89225	-0.005632656
231	0xbe58bfb4	-0.21166879
232	0xbe3c79be	-0.18405816
233	0x3eac0a1d	0.33601466
234	0xbeafdff4	-0.3435055
235	0xbe8bf5a4	-0.27335846
236	0x3e88d7cf	0.2672715
237	0x3e79c68e	0.24392149
238	0x3ea1373c	0.31487453
239	0xbeb4fced	-0.35349217
240	0xbe02d92a	-0.12778154
241	0xbe060703	-0.13088612
242	0xbe627a2f	-0.22116922
243	0xbe993a7f	-0.2992744
244	0x3db0a453	0.08625092
245	0x3d435383	0.047687065
246	0x3deab53b	0.11460348
247	0x3e51e261	0.20496513
248	0xbe8c09ee	-0.27351326
249	0x3d54b9fb	0.051935177
250	0x3dc328ce	0.09529267
251	0x3dcdaaae	0.1004232
252	0xbd99dccb	-0.07512816
253	0xbcd43196	-0.02590255
254	0x3e3cae7b	0.18425934
255	0xbe6b7436	-0.2299355

encoder.0.bias f4 [32]
0	0x3ee623db	0.4494923
1	0xbe9f77d2	-0.31146103
2	0xbde9ca81	-0.11415578
3	0x3e213419	0.1574253
4	0x3e8a41f3	0.2700344
5	0xbe6fac91	-0.23405673
6	0xbdcbf758	-0.099592865
7	0xbea6a338	-0.325464
8	0x3d47572e	0.048667125
9	0x3dfef5ce	0.12449227
10	0x3e9cb872	0.3060947
11	0x3e0ca084	0.13733107
12	0xbdfbf037	-0.12301677
13	0x3e11dff3	0.14245586
14	0x3dd3912b	0.10330423
15	0x3eb40871	0.3516269
16	0x3e991d2f	0.29905078
17	0xbe810070	-0.25195646
18	0xbe9d9d3f	-0.30784032
19	0x3d916e0c	0.07101068
20	0xbd2dc6d9	-0.042425964
21	0x3e2cd8a4	0.16879517
22	0x3e1d0c68	0.15336764
23	0x3da33713	0.07969489
24	0x3e2947ba	0.16531268
25	0x3c0ab41b	0.008465792
26	0x3e9d7c34	0.30758822
27	0x3eaed01a	0.34143144
28	0xbea5dc34	-0.32394564
29	0xbe4fecfa	-0.20305243
30	0x3d2c5caf	0.042080577
31	0x3e05ebf7	0.13078295

encoder.2.weight f4 [64, 32, 3, 3]
0	0xbd00926c	-0.03138964
1	0xbcc083af	-0.023500292
2	0xbc1b4c97	-0.00947871
3	0xbb450cca	-0.0030067437
4	0x3e3348b5	0.17508204
5	0x3db05f69	0.08611948
6	0xbd6c93ee	-0.057758264
7	0xbd9e72f7	-0.077367716
8	0xbe02d000	-0.12774658
9	0xbd6d2d83	-0.05790473
10	0xbd2b1a2e	-0.041773014
11	0xbcc03d25	-0.023466656
12	0xbcf21bdb	-0.029554298
13	0x3ceb906d	0.028755391
14	0xbd3f96f2	-0.046774812
15	0x3cadc88c	0.021213792
16	0xbd7bce34	-0.061475947
17	0xbd6c0625	-0.057623047
18	0x3dfdc32f	0.12390744
19	0x3d0e3da6	0.03472676
20	0x3d521d61	0.05129755
21	0xbd05ae0a	-0.03263668
22	0x3debc7ea	0.1151274
23	0x3d81653a	0.063181356
24	0x3e1f9d23	0.15587287
25	0x3e12acbb	0.14323704
26	0x3db038cf	0.086045854
27	0xbd09a9cf	-0.033609208
28	0xbdb5c865	-0.08876113
29	0xbd0eef35	-0.034896094
30	0xbc11014f	-0.00885041
31	0x3e21fd86	0.15819368
32	0x3dba8a36	0.09108393
33	0xbd7a9074	-0.061172917
34	0xbc39511a	-0.01131084
35	0xbdec500c	-0.11538705
36	0x3d3dc60b	0.046331447
37	0xbdade538	-0.08490986
38	0xbd1d99bc	-0.03847669
39	0x3c8cbc5a	0.017179657
40	0xbc2b74df	-0.010464876
41	0x3e460821	0.19339038
42	0xbc8e19f2	-0.017346356
43	0xbda85bb5	-0.08220617
44	0x3d2c2e22	0.042036183
45	0x3d929206	0.07156758
46	0xbd40659f	-0.046971913
47	0x3c6a0e66	0.014285659
48	0x3c280f47	0.010257549
49	0xbd6117a4	-0.054954186
50	0xbd0f2fc0	-0.034957647
51	0xbb1e56d6	-0.0024160645
52	0xbc051936	-0.008123687
53	0xbdeff8f0	-0.11717403
54	0x3c2082ad	0.0097967805
55	0xbdc00a3d	-0.09376953
56	0xbdb3f4a6	-0.08786897
57	0xbdf3b552	-0.118998185
58	0xbd0a04a8	-0.033695847
59	0x3d631c29	0.055446777
60	0x3d2d98c7	0.042382028
61	0x3d863969	0.06553919
62	0xbd9a872b	-0.075453125
63	0xbbb43b3f	-0.0055002267
64	0xbcbc196d	-0.022961343
65	0x3d540767	0.051764872
66	0x3caf4103	0.021393305
67	0x3d3f8564	0.04675807
68	0xbc2f77ee	-0.010709746
69	0xbba53da9	-0.005042751
70	0x3d1159c2	0.03548599
71	0x3b5ea4b2	0.0033972678
72	0x3c71d4b5	0.014760186
73	0x3c16dc9b	0.00920787
74	0xbd60408f	-0.054749068
75	0x3d5e93cd	0.054340173
76	0x3d509521	0.05092347
77	0x3d48277b	0.048865777
78	0x3d2cac9e	0.042156808
79	0xbd448fac	-0.04798858
80	0xbd05534b	-0.032550137
81	0x3dc066fe	0.09394644
82	0xbcef343c	-0.029199712
83	0xbce474dc	-0.027887754
84	0x3ca8af0c	0.020591281
85	0x3d75e7d8	0.060035557
86	0x3c79a545	0.015237157
87	0x3d77d5af	0.06050652
88	0x3d516008	0.051116973
89	0x3da28a54	0.0793654
90	0xbba4f464	-0.0050340164
91	0xbd03b813	-0.03215797
92	0xbb584b97	-0.003300404
93	0xbd5df93d	-0.05419277
94	0xbd3297d9	-0.043601844
95	0xbcecc0b8	-0.02890049
96	0xbc65a37e	-0.01401603
97	0x3d4295f3	0.047506284
98	0x3dedff4e	0.11620961
99	0xbd173fa3	-0.036925923
100	0x3c8a7555	0.016901651
101	0x3c0da479	0.00864517
102	0xbd464e60	-0.048414588
103	0x3d2296db	0.03969465
104	0x3e1c1aab	0.15244548
105	0xbcf1c5d9	-0.029513286
106	0xbd613ec6	-0.054991506
107	0xba869e14	-0.00102705
108	0x3d752f33	0.059859466
109	0x3b89e9cb	0.0042087785
110	0xbc89ebb2	-0.016836021
111	0xbc90d05d	-0.01767748
112	0x3ceddb6a	0.029035289
113	0x3ce2c3f0	0.02768132
114	0x3cae60f5	0.021286467
115	0x3ca76b82	0.020437006
116	0x3c31e089	0.010856756
117	0x3cac7937	0.021053893
118	0x3c05a6d6	0.008157453
119	0x3c1761e4	0.009239648
120	0xbcc28c0f	-0.023748426
121	0x3d74c499	0.059757803
122	0x3de734bc	0.11289355
123	0xbd86ad14	-0.06575981
124	0xbdc2c1a9	-0.09509594
125	0xbe3670ae	-0.17816421
126	0xbd7ee013	-0.062225413
127	0x3c9815d9	0.018565105
128	0x3d1ebb5d	0.038752902
129	0xbc18a8b3	-0.009317565
130	0x3db5beeb	0.08874305
131	0xbc867ee3	-0.016417926
132	0x3e965bd5	0.29366937
133	0x3e97a9dc	0.2962178
134	0x3d3bcb9e	0.04584848
135	0xbd85a468	-0.06525499
136	0xbd65d29f	-0.056109067
137	0x3d7d0574	0.06177278
138	0xbd9f8db6	-0.07790701
139	0xbd05cba2	-0.032664903
140	0xbd96aa40	-0.07356691
141	0xbb83f155	-0.0040265718
142	0x3d50d935	0.050988395
143	0x3e42fcdc	0.1904177
144	0x3d6d105c	0.05787693
145	0xbd4d1e25	-0.050077576
146	0xbd6a0979	-0.05713794
147	0x3d5ddd50	0.05416614
148	0xbdc162b4	-0.09442654
149	0x3c200e33	0.00976901
150	0xbda9bc4a	-0.082878664
151	0xbd7777ca	-0.060416974
152	0xbd9d43bc	-0.07678935
153	0xbbf8af23	-0.0075892373
154	0xbd282062	-0.041046508
155	0x3d2c886c	0.04212229
156	0xbda0c561	-0.07850147
157	0xbd40a725	-0.0470344
158	0xbb82bf15	-0.003990064
159	0xbc6a3f09	-0.014297255
160	0xbd5377b4	-0.05162783
161	0xbd706d45	-0.058697958
162	0xbd542daf	-0.05180138
163	0xbc9273c6	-0.01787747
164	0x3cae592b	0.021282753
165	0xbb81f88e	-0.0039663976
166	0x3d3337e9	0.043754492
167	0x3d53e841	0.051735166
168	0xbd60873d	-0.054816473
169	0xbcbb4089	-0.022857921
170	0x3c8bd270	0.017068118
171	0x3d6cac4a	0.057781495
172	0xbda1722e	-0.07883106
173	0xbdd5afb9	-0.10433907
174	0x3db811a5	0.089877404
175	0x3db6b440	0.08921099
176	0xbd6f8fd9	-0.058486793
177	0xbda654be	-0.08121632
178	0xbbb8e8ab	-0.0056429706
179	0x3d392d3d	0.04520916
180	0x3c0607f0	0.008180603
181	0x3d7f6b52	0.062358208
182	0x3d64aa2a	0.055826344
183	0xbdf16d35	-0.11788408
184	0xbd94aec6	-0.07259898
185	0xbbaef19f	-0.005338862
186	0x3d8ec194	0.06970516
187	0x3da531f4	0.080661684
188	0x3dba3bbc	0.09093425
189	0xbbce4c6d	-0.0062957318
190	0xbdd85ae4	-0.10564211
191	0xbd017601	-0.031606678
192	0x3c793d16	0.015212318
193	0xbe37527f	-0.17902564
194	0xbcd7ceb8	-0.026343688
195	0x3aee2d41	0.0018171446
196	0xbd45bbcd	-0.048274804
197	0x3d420283	0.047365677
198	0x3d008c92	0.03138406
199	0x3d8d40f6	0.06897156
200	0xbd7eeb0b	-0.062235873
201	0xbcfbf5cd	-0.030756855
202	0x3a040fa9	0.0005037734
203	0xbd2f209e	-0.042755716
204	0xbd71fbb5	-0.059077937
205	0xbd28e7c0	-0.04123664
206	0x3c455beb	0.012045841
207	0x3ca915d4	0.020640291
208	0xbc51c98b	-0.012804399
209	0x3ceacc18	0.028661773
210	0xbadca399	-0.0016833424
211	0x3da931b3	0.082614325
212	0xbd36497f	-0.044503685
213	0xbe1ef2ec	-0.15522355
214	0x3d8f2cc5	0.06990961
215	0x3d49baba	0.049250342
216	0xbdadb923	-0.08482578
217	0x3e0098ab	0.12558238
218	0x3bc5af25	0.0060328417
219	0xbdbb0913	-0.0913259
220	0xbe107df1	-0.14110543
221	0x3dafb02b	0.08578523
222	0x3e489829	0.19589294
223	0x3d859732	0.06522979
224	0xbe398c67	-0.18119965
225	0xbd5d6df8	-0.054059952
226	0x3b1123b3	0.0022146523
227	0x3d7c5ec4	0.061613813
228	0x3d32f4d9	0.043690536
229	0x3db1427c	0.08655259
230	0xbe1838cb	-0.14865415
231	0xbcdbea5b	-0.026845148
232	0x3dd920f4	0.106019884
233	0xbd28a5f6	-0.041173898
234	0xbd6568ae	-0.056008033
235	0xbbcf24d4	-0.006321529
236	0x3c985739	0.018596279
237	0xbdd7451d	-0.10511229
238	0xbd4fabf3	-0.050701093
239	0xbd648bda	-0.055797435
240	0x3d6d33a4	0.057910576
241	0x3e45b040	0.19305515
242	0x3e791aa3	0.24326567
243	0x3d248974	0.040170148
244	0x3d8e51b9	0.06949181
245	0xbcdb3a98	-0.026761338
246	0x3dba571f	0.09098648
247	0x3b906960	0.004407093
248	0xbcf5c96e	-0.030003276
249	0xbc52ee87	-0.012874252
250	0xbd8f69f4	-0.07002631
251	0x3bdcd1de	0.0067388853
252	0xbc118fc3	-0.008884373
253	0xbba390af	-0.004991613
254	0xbd25c94b	-0.04047517
255	0xbc3d3d01	-0.011550189

encoder.2.bias f4 [64]
0	0x3db5582b	0.08854707
1	0x3d68ed3d	0.056866873
2	0x3d20a758	0.03922209
3	0xbc5c8de1	-0.013461561
4	0xbcf6261d	-0.03004747
5	0xbd44477d	-0.04791974
6	0x3dbf45b1	0.093394645
7	0x3d783e70	0.06060642
8	0x3d3332d5	0.04374965
9	0x3d1aeefc	0.03782557
10	0x3c93ceab	0.018042883
11	0x3c61891b	0.013765599
12	0xbcc6a509	-0.024248617
13	0x3d8638de	0.06553815
14	0xbca89b56	-0.020581882
15	0xbd4c12df	-0.049822684
16	0xbd7f56b5	-0.06233855
17	0x3d51f10d	0.051255275
18	0x3d0c7702	0.034293182
19	0x3d338c42	0.043834932
20	0xbd0ce94c	-0.034402177
21	0x3d626b7d	0.05527829
22	0xbc96f7c3	-0.018428689
23	0x3ca45bba	0.02006327
24	0xbd821f5d	-0.06353638
25	0x3d3261b2	0.0435502
26	0xbd5b80a5	-0.05358948
27	0x3d86e1cd	0.06586037
28	0x3c0f3cb2	0.008742498
29	0xbad6fd2a	-0.0016402353
30	0xbcf779f9	-0.030209528
31	0xbcb778cf	-0.022396473
32	0x3ba427dd	0.005009635
33	0x3d60603b	0.054779273
34	0x3d65e5b0	0.05612725
35	0x3d30c18a	0.043153323
36	0x3d989b72	0.07451524
37	0xbbb674bb	-0.0055681146
38	0xbd163fa6	-0.036681794
39	0x3d3d0b4b	0.046153348
40	0x3ce8048a	0.028322477
41	0xbb8a63f0	-0.0042233393
42	0xbd8169b1	-0.06318987
43	0x3dc26499	0.09491844
44	0xbd78ec56	-0.060772263
45	0xbd8068cd	-0.06269989
46	0xbd276985	-0.040872116
47	0xbd0d5688	-0.03450635
48	0xbc761b66	-0.015021181
49	0xbd422f68	-0.04740849
50	0xbccbf646	-0.024897706
51	0xbc77d4ba	-0.015126402
52	0xbd0a077a	-0.033698536
53	0x3ca33001	0.019920351
54	0xbaa05c56	-0.001223455
55	0xbc390189	-0.01129187
56	0xbc9458fb	-0.018108835
57	0x3cafe970	0.021473616
58	0x3c8d7dd1	0.017271908
59	0xbd34647f	-0.044041153
60	0x3b2204bb	0.0024722058
61	0x3d4feaf4	0.050761178
62	0xbd914f42	-0.07095195
63	0xbd40fa82	-0.047113903

encoder.3.weight f4 [64]
0	0x3f65db46	0.8978771
1	0x3f907c44	1.1287923
2	0x3f846f19	1.0346404
3	0x3f8618c4	1.0476308
4	0x3f94a8ba	1.1613991
5	0x3f6c5ac4	0.92326
6	0x3f7c45cc	0.98544
7	0x3f74c5c0	0.9561424
8	0x3f9d0da5	1.2269789
9	0x3f811545	1.0084616
10	0x3f9659cf	1.1746157
11	0x3f8c9b49	1.0984889
12	0x3f800a1b	1.0003084
13	0x3f9960d7	1.1982678
14	0x3f839bfa	1.0281975
15	0x3f78052a	0.9688288
16	0x3f6b029d	0.9180086
17	0x3f7c24b1	0.98493487
18	0x3f7460d0	0.95460224
19	0x3f85a98c	1.0442367
20	0x3f5ee857	0.8707327
21	0x3f8e3907	1.1111153
22	0x3f797131	0.9743834
23	0x3f8970d0	1.0737553
24	0x3f6ce50b	0.9253699
25	0x3f863065	1.0483519
26	0x3f790c67	0.9728455
27	0x3f7cb372	0.9871131
28	0x3f7c1c92	0.98481095
29	0x3f6fe184	0.93703485
30	0x3f829ba7	1.0203751
31	0x3f608707	0.87706035
32	0x3f8632ff	1.0484313
33	0x3fa050d6	1.2524669
34	0x3f7ff743	0.99986666
35	0x3f6d5112	0.9270183
36	0x3f849aea	1.0359776
37	0x3f9af656	1.2106426
38	0x3f8caf4d	1.0990998
39	0x3f693d57	0.9110922
40	0x3f637594	0.88851285
41	0x3f86f7b7	1.0544347
42	0x3f74b51b	0.95588845
43	0x3f6150b1	0.8801375
44	0x3f7c2e3f	0.98508066
45	0x3f838ef4	1.0278001
46	0x3f77116f	0.96510977
47	0x3f7aa183	0.979027
48	0x3f7723ff	0.965393
49	0x3f5925d4	0.84823346
50	0x3f8263a2	1.0186656
51	0x3f54870d	0.8301857
52	0x3f806b52	1.0032752
53	0x3f7e49df	0.9933147
54	0x3f875132	1.0571654
55	0x3f71af53	0.9440815
56	0x3f5e62b0	0.86869335
57	0x3f828156	1.019572
58	0x3f6da80d	0.9283455
59	0x3f6bedb4	0.9215958
60	0x3fa58d7c	1.2933803
61	0x3f930ac2	1.1487658
62	0x3f75980a	0.9593512
63	0x3f5abed2	0.8544742

encoder.3.bias f4 [64]
0	0xbe7a1b22	-0.24424413
1	0x3c9b2903	0.018940454
2	0xbdbb479e	-0.09144519
3	0xbdbb005c	-0.09130928
4	0x3dae0546	0.084970996
5	0xbe1f8af3	-0.15580349
6	0xbe64e62f	-0.22353433
7	0xbd9339f8	-0.07188791
8	0x3e834551	0.25638822
9	0xbe03002f	-0.12793039
10	0x3d7a0ae4	0.061045542
11	0xbbf79877	-0.007556017
12	0xbe07f27a	-0.13276091
13	0x3e2737c1	0.16329862
14	0x3e3daa99	0.18522109
15	0xbe44bbf8	-0.1921233
16	0xbe7cc708	-0.246853
17	0xbe234e70	-0.1594789
18	0xbe2300f8	-0.15918338
19	0xbe0f340e	-0.13984701
20	0xbec3621a	-0.38160783
21	0xbdc1054b	-0.09424838
22	0xbe466c79	-0.19377317
23	0xbc159075	-0.0091286795
24	0xbe411401	-0.18855287
25	0xbda73e60	-0.08166194
26	0xbe77937a	-0.24177352
27	0xbdfb9eb8	-0.122861326
28	0xbe5d7e3a	-0.21630183
29	0xbe8dd571	-0.27701905
30	0xbd26ffbc	-0.04077123
31	0xbde602b6	-0.11230986
32	0xbe71b290	-0.23603272
33	0x3e0f3076	0.1398333
34	0x3cc310b1	0.02381167
35	0xbe35d724	-0.17757851
36	0xbd1dcf63	-0.038527858
37	0x3e0bd4dd	0.1365542
38	0x3cd602b3	0.026124334
39	0xbe3eca1c	-0.18631786
40	0xbe50b27f	-0.20380591
41	0xbdf3828b	-0.118901335
42	0xbd17e298	-0.03708133
43	0xbe508f66	-0.20367202
44	0xbd96628d	-0.07343016
45	0xbe5a80d9	-0.21338214
46	0xbe35461c	-0.17702526
47	0xbb7df98d	-0.003875348
48	0xbe3b8bf2	-0.18315104
49	0xbe40288c	-0.18765467
50	0xbe858cd3	-0.26084003
51	0xbe8c0b38	-0.2735231
52	0xbd9e488d	-0.07728682
53	0xbe2b9345	-0.16755398
54	0xbe4c45d6	-0.19948515
55	0xbe395092	-0.18097141
56	0xbe52cb8a	-0.20585456
57	0xbda976ce	-0.08274613
58	0xbdd7c6a3	-0.10535934
59	0xbdfa870d	-0.1223279
60	0x3e1d268a	0.15346733
61	0x3d966221	0.07342935
62	0xbe028f89	-0.12750067
63	0xbe4631de	-0.1935496

encoder.3.running_mean f4 [64]
0	0x3e29f5bc	0.16597646
1	0xbe5633a7	-0.20918141
2	0xbe8fd0fc	-0.2808913
3	0xbb340ff5	-0.0027475331
4	0x3f0c2d64	0.5475676
5	0xbcdfafcf	-0.027305512
6	0xbd4dcc0b	-0.05024342
7	0x3e3bfb18	0.18357503
8	0x3d76933b	0.060199004
9	0x3cc55b8b	0.024091503
10	0x3d887818	0.06663531
11	0xbe2422ef	-0.16028951
12	0xbd4cb7f4	-0.04998012
13	0x3e3a8ab9	0.18216981
14	0x3f1d9eb7	0.61570305
15	0xbe87f94f	-0.26557395
16	0xbee79670	-0.45231962
17	0xbda095df	-0.07841086
18	0xbd01524f	-0.031572636
19	0xbda4552f	-0.0802406
20	0xbdc4ffae	-0.096190795
21	0xbe0a074a	-0.13479343
22	0x3d176986	0.03696587
23	0xbddd6ac1	-0.10811377
24	0xbe88e2b5	-0.26735464
25	0xbd8d1cd0	-0.06890261
26	0xbd8ce65d	-0.06879876
27	0x3e81dd39	0.25364092
28	0xbbd62fda	-0.006536466
29	0x3dbd8bfa	0.09255214
30	0x3d9e7031	0.077362426
31	0xbf1c2e64	-0.61008286
32	0xbea254a5	-0.31705204
33	0x3eae10f5	0.33997312
34	0x3cbff916	0.023434203
35	0xbd213600	-0.03935814
36	0xbcebad35	-0.028769115
37	0x3f034732	0.5128051
38	0xbe47d431	-0.19514538
39	0x3ded68e2	0.115922704
40	0x3daf7f14	0.0856916
41	0xbdb317d1	-0.08744777
42	0x3dd4e577	0.103953294
43	0xbc031732	-0.008001136
44	0xbe84cd4c	-0.2593788
45	0xbdab5245	-0.08365301
46	0x3e95605c	0.2917508
47	0xbded10cc	-0.115754694
48	0xbe73c87e	-0.2380695
49	0x3d5fbf4a	0.054625787
50	0xbde83a91	-0.11339296
51	0x3dca3bea	0.09874709
52	0xbef662d9	-0.4812229
53	0xbeb2fff7	-0.3496091
54	0x3d87c370	0.066290736
55	0xbe7b65ea	-0.24550596
56	0xbe85d0d7	-0.26135895
57	0xbe0ba440	-0.13636875
58	0xbe7c46c1	-0.24636365
59	0xbec3acb4	-0.382177
60	0xbcb0981f	-0.021556912
61	0x3f8a35d4	1.0797677
62	0xbea15a60	-0.31514263
63	0xbeee1354	-0.4649912

encoder.3.running_var f4 [64]
0	0x3c26eaf4	0.010187853
1	0x3d65e45d	0.056125987
2	0x3ca390eb	0.019966563
3	0x3cfdf626	0.031001162
4	0x3d6b60be	0.057465307
5	0x3ca9718f	0.020684032
6	0x3cc6b719	0.02425723
7	0x3ce99dee	0.02851769
8	0x3db12a07	0.08650594
9	0x3cddfa59	0.027096914
10	0x3d4f4e0e	0.050611548
11	0x3c4ce6fa	0.012506241
12	0x3d038f72	0.032119222
13	0x3d6b0292	0.057375498
14	0x3d2dbbb7	0.042415347
15	0x3cc7ecc8	0.024404898
16	0x3c9352fb	0.017983904
17	0x3c3a5b92	0.011374371
18	0x3cf9c37f	0.030488728
19	0x3ca84622	0.020541254
20	0x3c57168b	0.013127933
21	0x3d08f741	0.033438925
22	0x3c65853a	0.0140088145
23	0x3d3470e9	0.044052992
24	0x3c367a5c	0.011137571
25	0x3cdf987e	0.027294394
26	0x3c989a5e	0.018628296
27	0x3c952398	0.018205449
28	0x3c99fb7e	0.018796679
29	0x3c23aaab	0.009989421
30	0x3cc707a8	0.024295643
31	0x3d019f7b	0.031646233
32	0x3c0d21e5	0.008614038
33	0x3d6cab9d	0.05778085
34	0x3c8d667e	0.017260786
35	0x3c984bc3	0.018590814
36	0x3cb658d0	0.022259146
37	0x3d8db189	0.06918628
38	0x3d6b48a9	0.05744234
39	0x3ca26e9f	0.019828139
40	0x3ca4ca56	0.020116013
41	0x3cc8399c	0.024441533
42	0x3cfbf505	0.030756483
43	0x3c701ee2	0.014655801
44	0x3c826034	0.015915014
45	0x3cae9dc4	0.021315463
46	0x3cc07158	0.023491547
47	0x3d063066	0.032761
48	0x3ca400c5	0.020019898
49	0x3c80f2d4	0.01574079
50	0x3c3e7854	0.011625368
51	0x3c4e9bd7	0.012610397
52	0x3c94c222	0.018158976
53	0x3ca2a2e0	0.019853055
54	0x3ccac3fc	0.024751656
55	0x3d3a11a7	0.04542699
56	0x3c90d9bf	0.017681954
57	0x3d259374	0.040423825
58	0x3ca24dbb	0.019812455
59	0x3caea19a	0.021317292
60	0x3d5b6151	0.053559605
61	0x3d7ba66b	0.061438005
62	0x3ceb954d	0.028757716
63	0x3cc53fc7	0.024078263

decoder.0.weight f4 [64, 32, 3, 3]
0	0xbe0c1d9d	-0.13683172
1	0xbd75fe14	-0.06005676
2	0xbda6361d	-0.0811579
3	0x3d731926	0.059350155
4	0x3d69e493	0.05710275
5	0x3c30a07a	0.010780448
6	0xbdb10e36	-0.08645289
7	0xbd831108	-0.06399733
8	0xbdbde520	-0.09272218
9	0xbe0e7d36	-0.13914952
10	0xbe16b3bf	-0.14717005
11	0xbd92bb5f	-0.071646444
12	0x3c2c00e8	0.010498263
13	0xbd01c644	-0.03168322
14	0xbd7fbda4	-0.062436715
15	0xbdda3069	-0.10653765
16	0xbd844df4	-0.06460181
17	0xbcc23461	-0.023706617
18	0xbd902c9d	-0.07039759
19	0x3c8f8630	0.01752004
20	0x3d653434	0.055957988
21	0x3b96d244	0.0046027023
22	0x3d6b2efd	0.05741786
23	0xbc113317	-0.008862278
24	0xbb96d2ff	-0.0046027894
25	0xbd0c1ff7	-0.03421017
26	0x3cd93fa3	0.026519602
27	0xbded2446	-0.11579184
28	0xbcc6f807	-0.02428819
29	0x3c92ea21	0.017933907
30	0xbd3909d5	-0.045175392
31	0xbcfbd1b5	-0.030739645
32	0xbd5b6f9c	-0.053573236
33	0x39d65eab	0.00040887794
34	0x3d65338d	0.055957366
35	0x3c1b2e17	0.009471438
36	0xbe08602f	-0.13317941
37	0xbd8fdc3f	-0.070244305
38	0xbb5ca75e	-0.0033669095
39	0x3bb474ae	0.0055070734
40	0x3cd370ba	0.025810588
41	0xbd46e857	-0.04856142
42	0xb98ca7f1	-0.00026828007
43	0xbd51e5af	-0.051244434
44	0x3df1c2e7	0.11804753
45	0xbdb62344	-0.08893445
46	0xbe19ab07	-0.15006648
47	0xbd2a47dd	-0.04157244
48	0xbc99d35f	-0.018777547
49	0xbc82a9c4	-0.015950091
50	0x3c86e298	0.01646547
51	0x3c4bd679	0.012441271
52	0x3cfa510a	0.03055622
53	0xbc7d609f	-0.015464931
54	0xbd8a3516	-0.067484066
55	0x3d6a6105	0.05722143
56	0x3da10836	0.07862894
57	0x3e0e6016	0.13903841
58	0x3d6ce2e5	0.05783357
59	0xbd848ecf	-0.06472551
60	0x3d2468bb	0.04013894
61	0x3d8e8e38	0.0696072
62	0x3d7d43a5	0.06183209
63	0xbc854fae	-0.016273346
64	0x3d7b6b98	0.061381906
65	0x3de8608f	0.11346542
66	0x3cb36127	0.021896912
67	0x3dc38d63	0.09548452
68	0x3e0764a4	0.13221985
69	0xbc1b8c19	-0.009493851
70	0xbb885001	-0.004159928
71	0x3cba4daf	0.02274212
72	0xbdcb94bb	-0.099404775
73	0x3dbc2636	0.09186976
74	0xbc60a619	-0.013711476
75	0x3d627ab2	0.055292793
76	0x3d588e71	0.052870218
77	0x3debcd71	0.11513794
78	0xbcb5e184	-0.02220226
79	0xbbdf83b6	-0.006821121
80	0x3c3a25ac	0.011361521
81	0xbc984915	-0.018589536
82	0x3cb8a1f5	0.022538165
83	0x3db6c704	0.08924678
84	0xbdcdc463	-0.100472234
85	0x3d424318	0.047427267
86	0x3d8a2167	0.06744652
87	0xbcd84697	-0.026400847
88	0x3c2cbabb	0.010542567
89	0x3daad734	0.08341828
90	0x3d191d98	0.03738174
91	0x3cc3f37a	0.02391981
92	0xbe781f8c	-0.24230784
93	0x3ccebd89	0.025236862
94	0x3d065177	0.032792535
95	0xbda898e5	-0.08232287
96	0x3c3db865	0.011579608
97	0xbdca3868	-0.0987404
98	0xbed11e7a	-0.40843564
99	0x3da65676	0.0812196
100	0x3beb09ab	0.0071727834
101	0xbe234dac	-0.15947598
102	0x3ccbec50	0.024892956
103	0x3d59a3ec	0.053134844
104	0x3d6c8e45	0.057752866
105	0xbd0fab42	-0.035075434
106	0xbc56eb80	-0.013117671
107	0x3d7d0c45	0.06177928
108	0x3cfda8dd	0.03096431
109	0x3cf023d2	0.029313955
110	0x3caba256	0.020951431
111	0xbb723530	-0.0036957972
112	0x3c966e4a	0.018363137
113	0x3d65bcd2	0.056088276
114	0x3ca568af	0.020191519
115	0xbd358d12	-0.04432399
116	0x3b42e88b	0.0029740657
117	0xbd92845f	-0.07154154
118	0x3d51c580	0.05121374
119	0x3bc83aff	0.0061105485
120	0xbe2bff8b	-0.167967
121	0xbd825294	-0.06363407
122	0x3d827667	0.0637024
123	0x3d3fa311	0.04678637
124	0xbcb028e9	-0.021503882
125	0x3cefc36a	0.029267985
126	0xbdbcdeda	-0.09222193
127	0xbc32a611	-0.010903851
128	0x3d0bce5d	0.03413235
129	0xbc649ba2	-0.013953121
130	0xbce63342	-0.028100614
131	0xbb9e04fb	-0.004822371
132	0x3c5eeb28	0.01360587
133	0xbde9b2d4	-0.11411062
134	0xbda1dcc2	-0.07903434
135	0x3da00e46	0.078152224
136	0x3c7d3c6d	0.015456301
137	0x3dab5577	0.083659105
138	0x3d20efe2	0.03929127
139	0x3de1be52	0.11022629
140	0x3dab56ce	0.08366166
141	0x3c4944af	0.012284442
142	0x3b290592	0.0025790674
143	0x3be67328	0.0070327707
144	0x3dd53ba5	0.10411767
145	0x3dd4964b	0.103802286
146	0x3d9fc07a	0.07800384
147	0xbae9ebe7	-0.0017846794
148	0xbd95310a	-0.07284744
149	0xbd0152c2	-0.031573065
150	0x3caa4c4e	0.020788338
151	0x3dac9172	0.08426179
152	0x3d3443b8	0.044009894
153	0xbd090997	-0.03345641
154	0x3df409e7	0.11915951
155	0x3d7e008f	0.06201225
156	0x3d426139	0.047456
157	0x3c42c96b	0.011888842
158	0x3cc0736b	0.023492536
159	0x3df7b34b	0.12094744
160	0x3d00413a	0.031312205
161	0x3c922fef	0.017845122
162	0xbdca517b	-0.098788224
163	0xbbfd9e94	-0.0077398513
164	0xbd69b895	-0.057060797
165	0xbc423ca4	-0.011855278
166	0x3ab3d890	0.0013721157
167	0xbba11001	-0.004915238
168	0x3dcd7114	0.100313336
169	0x3d94d0be	0.07266377
170	0x3de1e5e9	0.1103018
171	0xbb93b512	-0.0045076692
172	0xbc882fb0	-0.016624302
173	0xbb89e28e	-0.0042079156
174	0xbe0316a9	-0.12801613
175	0xbc9e03ed	-0.019288981
176	0x3bc5f8cc	0.006041622
177	0xbdabee8e	-0.0839511
178	0xbcd67aab	-0.02618154
179	0xbd2fd735	-0.042929847
180	0x3ced6796	0.028980058
181	0x3d5b7f90	0.05358845
182	0xbb1bd572	-0.0023778346
183	0xbca3e466	-0.02000637
184	0xbbcba1a5	-0.006214338
185	0x3d455d7e	0.048184864
186	0x3d2c2412	0.042026587
187	0x3dc0b956	0.0941035
188	0x3d391187	0.04518273
189	0x3b349c75	0.0027559076
190	0x3d5b84eb	0.053593557
191	0x3d9f79a6	0.077868745
192	0xbd29058e	-0.041265063
193	0x3d533c79	0.051571343
194	0x3c9fabc2	0.01949108
195	0x3b939f79	0.0045050946
196	0x3cdf897a	0.027287234
197	0xbd5f366c	-0.05449526
198	0xbd5c50ad	-0.053787876
199	0xbc3839bf	-0.0112442365
200	0xbd519b57	-0.051173534
201	0xbe03cd5a	-0.12871304
202	0xbdf21e81	-0.118222244
203	0xbc348e3a	-0.011020238
204	0xbc6b9ff7	-0.0143814
205	0xbd78f11f	-0.060776826
206	0xbdb3cb80	-0.08779049
207	0xb8e3561b	-0.00010840242
208	0x3cf8d8b5	0.030376771
209	0x3c8ba44e	0.01704612
210	0x3be919b4	0.0071136598
211	0x3c537177	0.01290547
212	0xbc9b379b	-0.018947413
213	0x3ce9b3b5	0.028528074
214	0xbe02b755	-0.12765248
215	0xbe30d219	-0.17267646
216	0x3c704a8a	0.014666209
217	0x3d818ec6	0.0632606
218	0xbc236e4d	-0.009975028
219	0x3a680ad6	0.00088517123
220	0x3d0aa3fe	0.0338478
221	0xbd140425	-0.036136765
222	0x3d821bb8	0.06352943
223	0x3d223ed2	0.03961069
224	0x3d6b9103	0.05751134
225	0x3cd9a1ac	0.026566349
226	0x3dec1f8a	0.11529453
227	0x3dd6c68d	0.10487089
228	0xbcfd29cc	-0.03090372
229	0xbc370505	-0.01117063
230	0x3d62d0c2	0.05537487
231	0x3de5f568	0.11228448
232	0x3e0bfd5e	0.1367087
233	0x3defe85e	0.117142424
234	0x3c565542	0.0130818505
235	0xbda0b1a7	-0.078463845
236	0xbd64b753	-0.055838894
237	0xbe11e9a1	-0.14249279
238	0xbd013692	-0.031546183
239	0xbd7d0625	-0.061773438
240	0xbe297748	-0.16549408
241	0xbe8cf2f5	-0.27529112
242	0xbe4111a1	-0.18854381
243	0x3ce8cc47	0.02841772
244	0x3d2b4ab3	0.041819286
245	0x3a8a57b0	0.0010554697
246	0xbd627281	-0.05528498
247	0x3d1e191a	0.038598157
248	0x3d880691	0.066418774
249	0xbe6930d4	-0.22772533
250	0xbe86c84e	-0.26324695
251	0xbea291e3	-0.31751928
252	0xbe0dd0fc	-0.13849252
253	0x3cd040d2	0.025421534
254	0x3d9ee6d6	0.07758872
255	0xbd85980a	-0.0652314

decoder.0.bias f4 [32]
0	0x3d8e543e	0.06949662
1	0x3da0dbc6	0.078544185
2	0x3d2df224	0.04246725
3	0xbc4c8acd	-0.012484265
4	0xbd14cf65	-0.0363306
5	0x3daea3ba	0.08527322
6	0x3d3c81ab	0.0460221
7	0x3c2fb05a	0.010723198
8	0x3ea406fc	0.3203658
9	0xbca6a840	-0.0203439
10	0x3e187d53	0.14891557
11	0x3d7e223a	0.06204436
12	0x3d53611c	0.051606283
13	0x3c8739e9	0.016507106
14	0x3e83be54	0.25731146
15	0xbd1bb168	-0.038010985
16	0x3d6b4dd2	0.057447262
17	0x3bf3e657	0.00744323
18	0x3e477c0b	0.19480912
19	0xbd392561	-0.045201663
20	0xbd2b7bc7	-0.04186609
21	0x3d2a2166	0.041535757
22	0x3dd87ef0	0.105710864
23	0x3e38c766	0.18044814
24	0x3d73bae2	0.059504397
25	0x3d4e201f	0.0503236
26	0x3e62dac2	0.22153762
27	0x3dd9663a	0.10615201
28	0x3d67d95b	0.05660377
29	0x3ded703d	0.115936734
30	0x3e50b825	0.20382746
31	0x3b861773	0.004092151

decoder.1.weight f4 [32]
0	0x3f4b9c41	0.795353
1	0x3f425279	0.75907093
2	0x3f0ec8c9	0.55775124
3	0x3f41fa5f	0.7577266
4	0x3f584b5c	0.8448999
5	0x3f7238e0	0.94618034
6	0x3eab871c	0.33501518
7	0x3f68b8a2	0.9090673
8	0x3f886a1f	1.0657386
9	0x3f3cd9e4	0.73769975
10	0x3f807056	1.0034282
11	0x3f4fe1f5	0.8120416
12	0x3f53005d	0.8242243
13	0x3f5005f7	0.812591
14	0x3f86475a	1.0490525
15	0x3ed09f38	0.40746474
16	0x3f876eb2	1.0580657
17	0x3f54eb3c	0.8317144
18	0x3f8e332b	1.1109365
19	0x3f53f91d	0.8280199
20	0x3f097fb5	0.5371049
21	0x3f49778a	0.7869803
22	0x3f99f405	1.2027594
23	0x3f924da7	1.1429948
24	0x3ef7281f	0.48272797
25	0x3f3773f0	0.7166128
26	0x3f810cb8	1.0082006
27	0x3fac1be2	1.3446009
28	0x3f31af95	0.6940854
29	0x3f9f5163	1.2446712
30	0x3f85a870	1.0442028
31	0x3f5d58d4	0.86463666

decoder.1.bias f4 [32]
0	0x3c9d66d1	0.019214066
1	0xbd9a1c02	-0.07524873
2	0xbe9cea03	-0.30647287
3	0xbe08ef96	-0.13372645
4	0xbdc664d0	-0.09687197
5	0x3b9b1e96	0.0047338707
6	0xbec4c9e2	-0.38435274
7	0x3d4b4063	0.04962195
8	0x3ca2145d	0.0197851
9	0xbe424512	-0.1897166
10	0xbaeb9937	-0.0017974739
11	0x3d3ca5df	0.046056625
12	0xbe16ae1e	-0.14714858
13	0xbe127525	-0.143025
14	0x3cfdc230	0.030976385
15	0xbe939f8a	-0.28832656
16	0xbd9a68a0	-0.07539487
17	0xbccde1a6	-0.025132012
18	0xbdb38f6b	-0.08767589
19	0xbe4ad58b	-0.19808023
20	0xbe5f1b8a	-0.21787849
21	0xbde09a0e	-0.109668836
22	0xbcee9b40	-0.029126763
23	0xbd8bb353	-0.06821313
24	0xbe9088a9	-0.28229263
25	0xbd18777c	-0.037223324
26	0xbcdc1a59	-0.026868032
27	0xbde1ddbc	-0.110286206
28	0xbe79f93b	-0.2441148
29	0xbd8a32d5	-0.06747977
30	0x3afc0a58	0.0019229157
31	0xbdcbe24a	-0.099552706

decoder.1.running_mean f4 [32]
0	0xc042ee01	-3.0457766
1	0xc037c243	-2.8712318
2	0x3f3da365	0.74077445
3	0xc03019fd	-2.7515862
4	0xc0d8e3f3	-6.777826
5	0xc045f303	-3.0929573
6	0xbf2f7e68	-0.68552256
7	0x402be688	2.6859455
8	0xc084b0e6	-4.146594
9	0xc01d959c	-2.4622564
10	0xc0926a39	-4.5754666
11	0xc025822a	-2.5860696
12	0x3fd7579e	1.6823614
13	0xc008e67c	-2.1390676
14	0xc0692187	-3.6426713
15	0x3fc50359	1.5391647
16	0xc0b25d63	-5.5738997
17	0x3fe85841	1.8151933
18	0xc0827e49	-4.0779157
19	0xbfe9d964	-1.8269467
20	0x3f2f8368	0.68559885
21	0xc047d131	-3.122143
22	0xc08a1658	-4.3152275
23	0xc05e1734	-3.4701662
24	0xbecb9750	-0.3976388
25	0x3b1a1c39	0.0023515357
26	0xc08958d5	-4.2920938
27	0xc07574a8	-3.8352451
28	0x3f749e3a	0.95553935
29	0xc08146d7	-4.0398974
30	0xc0740f2c	-3.813426
31	0xbf96f6e2	-1.1794093

decoder.1.running_var f4 [32]
0	0x422ca05f	43.156612
1	0x4247ddd2	49.96662
2	0x4200b5e0	32.177612
3	0x41d2dd26	26.357983
4	0x41d46bce	26.552639
5	0x4190fa25	18.12214
6	0x4216b24d	37.67412
7	0x4272fe27	60.748196
8	0x429948c9	76.64216
9	0x42894417	68.63299
10	0x42d7ff58	107.99872
11	0x41c5eb60	24.73993
12	0x4226ab87	41.667507
13	0x423b78ba	46.867897
14	0x42515667	52.334377
15	0x422758cc	41.836716
16	0x42141f1a	37.030373
17	0x4280d65e	64.418686
18	0x42c317e2	97.546646
19	0x41a43283	20.524664
20	0x4269a0d2	58.40705
21	0x421e9457	39.644863
22	0x41e43f73	28.530981
23	0x4215726b	37.361736
24	0x42239def	40.904232
25	0x42241ef6	41.030235
26	0x42896d29	68.7132
27	0x41dfa9a1	27.957827
28	0x427737a0	61.80432
29	0x41b50dc4	22.631721
30	0x42a9dbe3	84.92947
31	0x425450b9	53.07883

decoder.3.weight f4 [32, 1, 3, 3]
0	0xbd0c3c78	-0.034237355
1	0x3da3c633	0.07996788
2	0xbe14f3cb	-0.14546125
3	0xbe35b657	-0.17745338
4	0x3e26a336	0.16273198
5	0x3e04ddd1	0.12975241
6	0x3d1d2ae7	0.038370993
7	0x3e2d66fa	0.16933814
8	0x3f396a53	0.7242786
9	0xbe53edec	-0.20696229
10	0x3e76f36f	0.241163
11	0x3dad90c3	0.08474877
12	0x3e76291a	0.24039117
13	0xbe489876	-0.19589409
14	0x3e703d53	0.23460893
15	0xbe2b6b9c	-0.16740268
16	0x3e8a91ea	0.2706445
17	0x3ebc21e1	0.36744598
18	0xbe554bb5	-0.20829661
19	0xbe5185c7	-0.20461188
20	0xbd93a549	-0.0720926
21	0x3d8eb160	0.06967425
22	0xbda55074	-0.08071986
23	0x3e974a3a	0.29548818
24	0x3d0693ec	0.032855913
25	0x3e4b6f8d	0.19866772
26	0xbd9b895f	-0.07594561
27	0xbda062b2	-0.07831325
28	0x3e168fec	0.1470334
29	0x3c3b187e	0.011419414
30	0x3e073a72	0.13205889
31	0xbe3273c0	-0.17426968
32	0xbe3ad9a9	-0.18247093
33	0xbd0714e8	-0.032978922
34	0xbb8c30b3	-0.0042782663
35	0x3e1abbaf	0.15110658
36	0xbdd17839	-0.10228009
37	0xbd299006	-0.041397117
38	0x3c3ec131	0.01164274
39	0x3e75334a	0.23945346
40	0x3e29dcef	0.16588186
41	0xbeaac984	-0.3335687
42	0x3dad25d0	0.08454478
43	0xbe3b559e	-0.18294379
44	0xbe79e02a	-0.24401918
45	0x3c7a2ba1	0.015269191
46	0xbe17b842	-0.14816383
47	0x3e6e1bee	0.23252842
48	0xbd689f0d	-0.056792308
49	0x3e95702e	0.2918715
50	0x3f04ed39	0.51924473
51	0x3d060f32	0.032729335
52	0x3da1f4a7	0.07907992
53	0xbe03d196	-0.1287292
54	0xbccaa423	-0.02473647
55	0x3e045d7a	0.12926283
56	0xbcf7234e	-0.030168202
57	0x3cc5587f	0.02409005
58	0xbd1c6011	-0.038177554
59	0xbe592693	-0.21206121
60	0xbc48ffa7	-0.0122679835
61	0xbdccbcae	-0.09996925
62	0x3e8420f8	0.25806403
63	0x3dd0d84e	0.10197507
64	0x3d1f1e02	0.038846977
65	0x3c81e0fe	0.015854355
66	0x3e7b2dcc	0.24529189
67	0xbe7c4584	-0.24635893
68	0xbe092754	-0.13393909
69	0x3ea6cb06	0.3257677
70	0x3db28b25	0.08717946
71	0x3e0bb4b1	0.13643147
72	0x3e11acea	0.14226118
73	0x3e81a616	0.25322026
74	0xbc735209	-0.014851102
75	0x3e265cb5	0.16246302
76	0x3c852a4e	0.016255524
77	0x3ded4c9f	0.1158688
78	0x3e5760e3	0.21033053
79	0x3f0ca7a0	0.54943275
80	0x3ee384ba	0.444372
81	0x3e4fba50	0.20285916
82	0xbe8c7754	-0.2743479
83	0xbd147aab	-0.036249798
84	0x3e47cbf3	0.19511394
85	0x3e2f12ff	0.1709709
86	0xbd85e8d2	-0.065385476
87	0xbe8839ef	-0.266067
88	0x3d97994d	0.07402287
89	0xbe70dc64	-0.23521572
90	0x3e83dbe8	0.25753713
91	0x3e27038c	0.16309947
92	0xbdbc9f6d	-0.092100956
93	0x3ec52bd6	0.38510007
94	0xbdb6910c	-0.08914384
95	0xbd568280	-0.05237055
96	0x3f4ee017	0.80810684
97	0x3e3260cb	0.17419736
98	0xbcc4c4eb	-0.024019679
99	0xbd981174	-0.07425204
100	0xbdb3fcf4	-0.08788481
101	0xbdd7c89e	-0.105363116
102	0x3c4538b8	0.012037449
103	0x3e99078f	0.2988858
104	0xbd1641c9	-0.03668383
105	0x3e36f32c	0.178662
106	0x3e53596d	0.20639582
107	0x3deccf3b	0.115629636
108	0xbc2ef158	-0.010677658
109	0x3d9a56ea	0.07536109
110	0xbe5528a7	-0.20816289
111	0xbde9328a	-0.11386593
112	0xbe3b85cd	-0.1831276
113	0x3d85a190	0.06524956
114	0xbe40ae92	-0.18816593
115	0x3debf368	0.115210354
116	0x3d85334e	0.06503926
117	0xbc879324	-0.016549654
118	0x3caa21a8	0.020768002
119	0xbcbd0666	-0.02307434
120	0xbde11846	-0.10990958
121	0x3d33e777	0.043921914
122	0xbd040539	-0.032231543
123	0xbe188402	-0.14894107
124	0x3d9e5f9b	0.07733079
125	0xbe78c86a	-0.24295202
126	0x3dcb9218	0.099399745
127	0x3f2c6ca1	0.67353255
128	0x3ef50f4f	0.47863242
129	0xbdede928	-0.11616737
130	0xbe256c4c	-0.16154593
131	0x3e858da4	0.26084626
132	0x3e620718	0.22073019
133	0x3ca0b7b4	0.019618846
134	0x3e5ca8ae	0.21548721
135	0xbdbb6786	-0.09150605
136	0x3d08627c	0.033297047
137	0xbe1b450f	-0.15163063
138	0x3d2c7eb3	0.042113017
139	0xbd2ed6a2	-0.04268516
140	0xbe2458c1	-0.16049482
141	0xbdb48a4f	-0.08815443
142	0x3ea8f88f	0.33002135
143	0x3d9f76af	0.07786309
144	0x3e75bca0	0.23997736
145	0x3ecb0976	0.39655656
146	0x3e9043c1	0.28176692
147	0xbbdb940b	-0.0067009977
148	0xbddf87ce	-0.109145746
149	0x3e00fdba	0.12596789
150	0x3db550fa	0.08853336
151	0xbe45bdc5	-0.19310673
152	0xbeaa26a8	-0.33232617
153	0xbc92200a	-0.017837543
154	0x3e8b7957	0.27241012
155	0x3e54bbc5	0.20774753
156	0xbe868427	-0.262727
157	0x3e5f3c74	0.21800405
158	0x3e770a9d	0.24125142
159	0xbe12732a	-0.14301744
160	0xbe78bc85	-0.24290664
161	0x3e88eda7	0.26743814
162	0xbd9fd517	-0.078043155
163	0x3ca8e588	0.020617262
164	0x3e3dd604	0.18538672
165	0x3ec2e813	0.38067684
166	0x3f1e2e69	0.61789566
167	0x3f2639e2	0.6493207
168	0x3dd151ef	0.10220706
169	0x3ea58d0a	0.32334167
170	0x3cb21fb6	0.021743637
171	0x3e476ac8	0.19474328
172	0xbe127985	-0.14304169
173	0x3df1bb92	0.11803354
174	0xbe3aa270	-0.18226027
175	0x3d1309ab	0.035897892
176	0x3dd59250	0.104282975
177	0xbe174806	-0.14773569
178	0x3ea3f3b5	0.3202187
179	0xbe61d33b	-0.22053234
180	0x3c8b0d8c	0.016974233
181	0x3d17b3ce	0.03703671
182	0xbe7cfd56	-0.24706015
183	0xbdd3041f	-0.103035204
184	0x3e063aa6	0.1310831
185	0x3e254421	0.1613927
186	0xbd523194	-0.051316813
187	0x3db2452b	0.08704599
188	0xbe439e30	-0.19103312
189	0x3e10e3d7	0.14149414
190	0x3e8e7819	0.27826002
191	0xbe768921	-0.24075748
192	0xbe462d3c	-0.19353193
193	0xbdeab906	-0.11461072
194	0xbc9aafb9	-0.01888262
195	0x3d3e88b1	0.046517078
196	0xbe3fb4ce	-0.18721315
197	0xbdcb5d82	-0.099299446
198	0x3dd4c2cc	0.10388717
199	0x3db57834	0.088608176
200	0x3cd374d4	0.025812544
201	0xbc282d28	-0.010264672
202	0xbdfcb617	-0.123394184
203	0xbf0c940b	-0.54913396
204	0x3f0da4e7	0.55329746
205	0xbc907347	-0.017633094
206	0xbed5d66d	-0.41765156
207	0x3d7ce528	0.061741978
208	0x3eb334b5	0.3500115
209	0xbddc3e69	-0.10754091
210	0x3f2f16b3	0.6839401
211	0x3e84d587	0.25944158
212	0x3eb60e82	0.35557944
213	0x3e03a8dd	0.12857385
214	0x3e2fcba5	0.17167528
215	0x3d3076a8	0.04308191
216	0xbe5e781b	-0.21725504
217	0x3e3be3bd	0.18348594
218	0xbdf5a0ab	-0.119935356
219	0x3df5a7b5	0.11994878
220	0xbd30a8d5	-0.04312976
221	0xbd998fc4	-0.07498124
222	0x3e6acbe3	0.22929339
223	0xbe3a4aa9	-0.18192543
224	0x3d8e0814	0.069351345
225	0xbe467810	-0.19381738
226	0x3e27bd4d	0.16380806
227	0x3e603f3d	0.21899123
228	0x3e81cf03	0.2535325
229	0xbb60c8e8	-0.0034299437
230	0x3e2b6b9f	0.16740273
231	0xbe15b553	-0.14619951
232	0xbd558a30	-0.05213374
233	0xbe381dfe	-0.17980191
234	0x3d518493	0.051151823
235	0x3e35fc7f	0.17772101
236	0x3f129b62	0.57268345
237	0xbd8ed71e	-0.06974624
238	0x3eab541f	0.33462617
239	0x3eb12337	0.3459718
240	0x3d6ff358	0.05858168
241	0x3ea1f894	0.31634963
242	0x3d4ec2c1	0.0504787
243	0x3e48f01f	0.19622849
244	0x3e4b82c3	0.198741
245	0x3f0e30ce	0.5554322
246	0xbc08fb6a	-0.008360723
247	0xbe8afd18	-0.2714622
248	0x3e2a6ff0	0.16644263
249	0x3f25b4c9	0.6472898
250	0x3ebd1592	0.3693052
251	0xbb1fb13b	-0.0024367112
252	0x3e101fc7	0.14074622
253	0xbe323fc1	-0.17407133
254	0xbe25b4fd	-0.16182323
255	0xbd8158f1	-0.06315792
